code/code13/mlruns/523885074691660867/0b5947fc84bb4f2ba6c4f17c6846ba0f/artifacts/model/data/model.pth (torch, 8180 bytes, 5 tensors)

weight f4 [20, 2]
00000000: 7a6c 1ebf 796d a9b9 6441 83bd c386 c6bf
00000010: e66b ab3c 58b9 163f 859e f83e cf35 f33e
00000020: 1c41 35be ccd8 1a3f c53c 3fbf c20d 3ebe
00000030: 0e04 1d3f 28b6 c9be cf6d c63e 6b3b 0cbe
00000040: 6876 05bf e077 fc3d a1be d33e 2691 2bbf
00000050: 7cbc bf3e 0164 303f b526 01be d4ac 363e
00000060: 2944 4c3f 7987 c33c d8ad 0dbf 2c4e c7be
00000070: db47 163d 38a2 103d c77f 183e 7562 843e
00000080: ca36 d5be bf4e 1a3b 7730 54bf 66b8 db3e
00000090: b685 11be ba4f 27bf d1d4 97be d619 9d3d
-0.6188427 -0.00032315755 -0.06408957 -1.5509876 0.020925473 0.5887656 0.4855844 0.4750199
-0.17700619 0.60487056 -0.747021 -0.18559936 0.6133431 -0.39396787 0.38755652 -0.13694541
-0.521338 0.12327552 0.41356376 -0.67018354 0.3744849 0.68902594 -0.12612422 0.17839366
0.79791504 0.02386831 -0.5534339 -0.38926828 0.03668962 0.035310954 0.14892493 0.25856367
-0.41643363 0.0023545471 -0.8288645 0.42914122 -0.14211163 -0.6535603 -0.29654554 0.076709434

bias f4 [20]
00000000: 8287 1fbf b1b0 d03f 50d9 0fbf cb6f 30bf
00000010: 40d6 e73d 7e29 2bbf 70b5 2d3f 9a1b 3f3f
00000020: 2bb7 883f 99cd a0be 8614 93be d337 b33f
00000030: 8555 0ebf f030 763e f4d8 89bf f680 24bf
00000040: 5d9a 053e c602 d93e 66c6 803f c9d8 143e
-0.62316144 1.6303922 -0.5619097 -0.6892058 0.11320162 -0.6686019 0.67854977 0.7465149
1.0680898 -0.3140686 -0.28726596 1.4001411 -0.5559924 0.24042106 -1.0769334 -0.6425928
0.13047166 0.42384928 1.0060546 0.14535822

weight f4 [20, 20]
00000000: fa21 29be 3c50 debc f01a 53be 93fe 58be
00000010: 32e4 0b3e 7da8 16be a85b 023e 8fd9 f63d
00000020: 699b 1abe 2c19 b13d 0011 efbd 3707 0bbe
00000030: 903e 02be 594e 48be 4b26 183c 8adf 5fbd
00000040: 1384 bbbc 3708 09bd 3bb9 463e 6c20 30be
00000050: 023e 85bd 7d13 6d3e 3640 5a3e c136 0bbe
00000060: e213 833e 08c2 cc3d 8f30 0ebe 04e2 59be
00000070: aee4 ed3b 37af d63c 1218 733e 0a97 b23d
00000080: 9aa0 e3bd abb7 79bd 5767 76be d222 2b3e
00000090: 3db1 043e 61b4 25bd d467 0ebe dac4 303d
000000a0: dad2 4ebd 4370 d73f f2e6 6b3e 0e94 81bd
000000b0: 824c c33d 5a91 aa3e e0f7 ad3e 9100 ff3e
000000c0: f4b4 5c3d d248 0c3f 1b30 0d3e ad4a 82be
000000d0: a6fc b23d e2b0 d8be 9abc 713e dece af3d
000000e0: 3d49 68be 24a8 79be 9047 463f 1da5 1b3e
000000f0: 4fed 123e 6371 813f fd91 05be fb5e 2abe
00000100: 2b4a 4e3e 4656 8e3e cf13 1d3d 5e9c c03c
00000110: c679 4dbd 9e18 f0be 2383 313e aca0 62bc
00000120: 17cf f0bd 9e5f 833e a0ca 34bf 34f4 66bd
00000130: 815f 873e 3f57 9d3d 1a37 043d 55ce e53d
00000140: d9fc af3d b748 533f 6bda 5e3e 5081 93bd
00000150: 07f7 b4bd 67df a83e 28d9 0c3c b442 58be
00000160: 5e19 913e b28b 97be 29fc b23a ad63 8a3e
00000170: a288 803d 1288 3c3e 195a d1be de30 8bbe
00000180: 2570 623e 0fd3 6e3d 0fc1 7dbe 6e91 bbbd
00000190: a414 8bbe e85d bb3f fddc 77be 1102 2fbe
000001a0: 8897 a7bd 85db 4ebd f05f d33f d200 f53f
000001b0: a899 4e3e 04b3 9a3e 56c4 92bd c965 a33d
000001c0: 2cef 9bbf 981f bebd a0a2 cabe 49a7 843d
000001d0: 42ac b0bd 3572 123e 8dc0 223e dfc7 3d3e
000001e0: 5ffa 23be 00f6 d13f 7fc8 4e3d 9620 833e
000001f0: d792 bdbb 0d18 e43e 31f9 593d c2f8 7b3d
00000200: d825 85be d185 133e e065 3c3d 58fa 99be
00000210: 7fdb 933e be37 5bbe 769d 143f a003 ac3e
00000220: accc 4d3d 3477 fb3c 027c 74bb 7745 01bd
00000230: e867 67be d078 cd3e 2e26 8d3e 0817 193e
00000240: b0cc 12bd 8dd9 b23e b0c0 e03e f90e 973e
00000250: b82a b7bd ddb6 843e b3bd b93e 96a7 8ebe
00000260: 6eab c43e ef35 8f3e 151b 3c3e a4ef 0a3d
00000270: 474f 7a3e 62bf 1fbe 3873 ee3d 84a2 81be
00000280: 67e7 083c 94cb adbf ebe9 e63d 5a88 8bbd
00000290: 406a 803b 994f b23e 516d f5bd 3942 eabf
000002a0: c641 873d b68e e1bd 5152 0dbe b939 d43d
000002b0: 3fc3 20be 8c31 3b3d 5ad2 73be 9727 383e
000002c0: e7d4 2d3e 9b7b 113e f0b1 87bc f175 4b3e
000002d0: b75e 1abe 968e 3d3f ed7e 0c3e 0fb9 a03d
000002e0: 0f26 0a3e 0a5f 11be 710a 103e e9df fa3d
000002f0: 1811 173e 7332 7b3e 500c 8a3d cf26 b0bd
00000300: 1d6a 713d eb82 413d 09ac a63d cbcb 2dbe
00000310: 7b82 ea3b 03b1 b73d 99ad 953d 6cb2 643c
00000320: 7b7c e13d ae49 9a3f a221 b63d 6e99 423c
00000330: e528 65bd a6a8 21bb 0298 9d3e 158d 033e
00000340: e6e1 b8bb c901 c53e cd70 8e3d 09ee 113e
00000350: c884 cc3d 18c1 e7bc e0d7 923d 385b 063c
00000360: 8ec8 b4bd 672d 8e3c 1772 f7be 43d2 0bbe
00000370: 99d2 893e e0f8 df3e a3a4 563e 1a70 1fbe
00000380: a8c9 7e3e 116e d13c 8dd2 a4bd 2ce3 2dbd
00000390: a927 c0bd 0237 233d 3db4 d03c 4921 94bc
000003a0: e53d 813d cd83 9c3e 158a b8bd abee da3d
000003b0: 2d50 90bc d8f2 8e3e e8f9 53be 10f6 e73d
000003c0: 6930 a53e 68bc 93bf b8f3 a0bc 5efd 09be
000003d0: a504 3e3e 384e 9a3e c9b9 bbbe 172c f7bf
000003e0: 8bb0 303b fa4e 15be 00c3 d7bd 87a4 9a3a
000003f0: ca40 253d cac1 27bc 6d28 bdbe 2050 aa3d
-0.16516867 -0.027137868 -0.20615745 -0.21190862 0.13661268 -0.1471271 0.12730277 0.12053215
-0.15098347 0.08647379 -0.11673164 -0.13576971 -0.12719178 -0.19561137 0.0092864735 -0.054656543
-0.022890126 -0.0334551 0.19406597 -0.17199868 -0.06505968 0.23151965 0.21313557 -0.13595106
0.25601107 0.09997946 -0.13885711 -0.21277624 0.0072599268 0.026206596 0.23739651 0.08720215
-0.11114617 -0.060966175 -0.24062859 0.16712502 0.12958236 -0.040455226 -0.13906795 0.043156482
-0.050494052 1.6831135 0.23037317 -0.06327067 0.09536077 0.3331402 0.33978176 0.4980512
0.053883508 0.54798615 0.13787882 -0.25447598 0.08739595 -0.4232245 0.23607102 0.08584379
-0.22684188 -0.24380547 0.77452946 0.15199704 0.14348339 1.0112728 -0.13043971 -0.16637795
0.2014548 0.27800196 0.03834897 0.023512062 -0.05016496 -0.4689378 0.17335181 -0.0138322525
-0.11758249 0.25658888 -0.7062168 -0.056385234 0.2644005 0.076826565 0.03227911 0.11220995
0.08593149 0.8253283 0.21763007 -0.07202399 -0.08836179 0.32982942 0.008596696 -0.21119195
0.28339666 -0.29598767 0.0013655472 0.27029172 0.06276061 0.18411282 -0.40889052 -0.2718572
0.22113092 0.05830675 -0.24780677 -0.09158598 -0.27164185 1.4638033 -0.24205394 -0.17090632
-0.08183199 -0.05050232 1.6513653 1.9140875 0.20175803 0.30214703 -0.07166354 0.07978398
-1.2182364 -0.0928337 -0.39577198 0.064772196 -0.086266056 0.14301379 0.15893765 0.18533276
-0.16013478 1.6403198 0.050484177 0.256108 -0.005785327 0.445496 0.053216163 0.06151653
-0.26005435 0.14406516 0.045995593 -0.3007381 0.288784 -0.21407983 0.58052766 0.33596516
0.05024402 0.030696489 -0.003730536 -0.031560387 -0.22598231 0.40131235 0.2756819 0.14950192
-0.035839736 0.34931603 0.4389701 0.2950361 -0.08943695 0.25920764 0.36277542 -0.27862233
0.3841204 0.27970836 0.18369706 0.033919945 0.24444304 -0.1560035 0.1164307 -0.25319302
0.008355952 -1.3577752 0.11275085 -0.06813116 0.003918916 0.34826353 -0.11983741 -1.830146
0.06604342 -0.11013548 -0.13800932 0.10362572 -0.1569948 0.04570155 -0.23810712 0.17983852
0.16975747 0.14207308 -0.01656434 0.1986921 -0.15075193 0.74045694 0.13720293 0.07847797
0.1349108 -0.14196411 0.14066483 0.12249739 0.14752614 0.24530964 0.0674063 -0.08601152
0.058939088 0.047243994 0.08138282 -0.16972272 0.0071566678 0.08969309 0.07308502 0.013958555
0.11010071 1.2053735 0.08893134 0.011877401 -0.055947203 -0.0024667173 0.30780035 0.12846787
-0.0056421636 0.38477924 0.06955109 0.1425096 0.099862635 -0.028290316 0.07170081 0.008200459
-0.08827315 0.017355634 -0.4832923 -0.13654427 0.26918486 0.43744564 0.20961241 -0.15570107
0.24881613 0.025565179 -0.08047972 -0.042452976 -0.093825646 0.03984738 0.02547657 -0.018082278
0.063106336 0.30569306 -0.09010712 0.106900536 -0.017616356 0.2791965 -0.207008 0.113262296
0.32263497 -1.1541872 -0.019647464 -0.13475558 0.18556459 0.301378 -0.3666518 -1.931033
0.0026960697 -0.14580908 -0.1053524 0.00117983 0.04034499 -0.010239074 -0.36944905 0.08316064

bias f4 [20]
00000000: b111 73bd ec8f 5c3e 39b0 c9be e608 683e
00000010: 7cc0 353e 1713 7d3e ead3 3dbf 405f 8abe
00000020: 7e60 0ebe cf43 b2bd 5e24 83be 8298 a9bd
00000030: 6f42 3ebc fe01 eb3d 16a0 fb3d d77f b1bd
00000040: 69ef 0e3e e9dd f33d 0f6c 953f ba9a 623e
-0.059343044 0.21539277 -0.3939226 0.22659644 0.17749208 0.24714313 -0.7415148 -0.27025795
-0.13903996 -0.0870434 -0.25613683 -0.08281042 -0.011612519 0.11474989 0.12286393 -0.08666962
0.13958515 0.119075604 1.1673602 0.22129336

weight f4 [1, 20]
00000000: 44a0 083d 7155 6dbe d02d da3e feeb bbbe
00000010: 95ae 9dbe 5391 bc3d d894 e93e 14bf c53e
00000020: a978 77be 8875 ac3c 7504 003e da40 6fbe
00000030: a892 eabd dfab ad3a 071d 243e 14c9 043e
00000040: 0d85 2fbe 6b6f 42be 25c4 4e3f 801f 8fbe
0.033355966 -0.23177125 0.42613077 -0.36703485 -0.30797258 0.09207406 0.4562137 0.38622344
-0.24167122 0.021052137 0.125017 -0.23364583 -0.11453754 0.0013250074 0.16026698 0.1296733
-0.17140599 -0.18987815 0.8076804 -0.2795372
